GIN-use this/models/gin_optimal_model.pt (torch, 145167 bytes, 32 tensors)

conv_layers.0.nn.0.weight f4 [60, 46]
0	0xbe1c0bd3	-0.15238886
1	0x3af97673	0.0019032493
2	0x3de8bd6c	0.11364254
3	0x3d5e58ad	0.054283787
4	0x374d919a	1.2252853e-05
5	0x3d903446	0.0704122
6	0xbb795854	-0.0038047032
7	0xba193cf8	-0.0005845572
8	0x373e79e0	1.1353259e-05
9	0xb920d364	-0.00015337538
10	0x38afa294	8.374933e-05
11	0xbd9e623e	-0.07733582
12	0xbda7219d	-0.08160708
13	0xbb3de6fc	-0.0028976789
14	0xb7b3e59c	-2.1445383e-05
15	0x3aefea32	0.0018304049
16	0x3a65ecb1	0.00087709265
17	0xbdf4b1e6	-0.11947994
18	0x3d9fd172	0.078036204
19	0xb94032c6	-0.00018329461
20	0xbe16baa8	-0.14719641
21	0x3d9d504f	0.07681333
22	0x3d566972	0.052346654
23	0xbd2f33fa	-0.042774178
24	0xbc5c4103	-0.013443234
25	0x3de1681e	0.11006187
26	0xbdf30f00	-0.118680954
27	0x3dcd3b1f	0.10021042
28	0xbc66a9a0	-0.014078528
29	0x3afb3b0d	0.0019167379
30	0x3ca71061	0.020393552
31	0xbd4e4179	-0.05035541
32	0xbdd200cc	-0.10254058
33	0x3d7a5e87	0.061125305
34	0xbb16d839	-0.0023017062
35	0xbc49dd0b	-0.012320767
36	0x3da573d1	0.08078731
37	0x37398734	1.1058339e-05
38	0x3da25a6b	0.07927402
39	0x3db52bed	0.08846269
40	0xbd34d7a6	-0.04415097
41	0xbaa9fa14	-0.0012968206
42	0xbbae4047	-0.005317721
43	0x3945ff09	0.00018882392
44	0xbcfdfc82	-0.031004194
45	0x3d5d9d37	0.05410501
46	0xbd647f95	-0.055785734
47	0xbe1a18c5	-0.15048511
48	0xbd6d3207	-0.057909038
49	0xbde66e70	-0.11251533
50	0xbd13ed73	-0.03611512
51	0xbc1adc94	-0.009452004
52	0xbd8fba4f	-0.070179574
53	0x3dbd8caf	0.09255349
54	0xba230b56	-0.0006219646
55	0xbc629922	-0.013830455
56	0xbe0f6b54	-0.14005786
57	0xbde02e47	-0.10946327
58	0x3e066aca	0.13126674
59	0x3de5995e	0.11210893
60	0xbda0f669	-0.07859499
61	0xbc833675	-0.016017178
62	0x3e3b608a	0.18298545
63	0xbd2a3ea3	-0.04156364
64	0xbdd11069	-0.10208208
65	0xbcf40fb5	-0.029792646
66	0x3d36c4ba	0.044621207
67	0x3b3ea956	0.0029092631
68	0x3ab8aec6	0.0014090172
69	0x3bd383a8	0.0064549036
70	0xbd8bcb8b	-0.06825932
71	0x3c2c68d1	0.010523037
72	0x3e415fbe	0.18884179
73	0x3dbb6f26	0.09152059
74	0x3d4d54b4	0.050129607
75	0x3dbd5bc1	0.09246016
76	0x3e14bead	0.14525862
77	0x3d935135	0.071932234
78	0x3e27a31f	0.1637082
79	0x3cba2720	0.022723734
80	0xbd761fc7	-0.0600889
81	0xbda80679	-0.082043596
82	0xbdeb75b0	-0.114970565
83	0xbd24fce8	-0.040280253
84	0xbdc87893	-0.09788623
85	0x3d93cfd2	0.07217373
86	0x3c748c7f	0.014926075
87	0x3e016d78	0.12639415
88	0xbda5efc2	-0.08102371
89	0xbc48ea6d	-0.012262923
90	0x3dbf9521	0.09354616
91	0xbdfc2f6f	-0.12313735
92	0xbe1405df	-0.14455365
93	0xbdddf576	-0.108378336
94	0x3d697535	0.056996543
95	0x3d392cd4	0.045208767
96	0xb9e516f3	-0.00043695382
97	0x3adb4b13	0.0016730748
98	0xbd65da5d	-0.05611645
99	0xbd236b59	-0.039897297
100	0x39a3e61a	0.00031261222
101	0x390c5106	0.00013381624
102	0x3a06160d	0.000511498
103	0xbd02d938	-0.031945437
104	0xbd6cb5bb	-0.0577905
105	0x3e0d4fec	0.13800019
106	0x3d98cae3	0.074605726
107	0x3dc6b689	0.097027846
108	0x3d0f4b51	0.034983937
109	0x3d6636bd	0.056204546
110	0xbc694069	-0.014236548
111	0xbdcf84fe	-0.10132788
112	0x3ab62991	0.0013897886
113	0x3dd1eb22	0.10249926
114	0x3b8b8a06	0.004258397
115	0xbde3025f	-0.110844366
116	0x3e0cf4be	0.13765237
117	0xbd8e21b6	-0.069400236
118	0x3d4f4bc1	0.050609354
119	0x3dea9f29	0.11456139
120	0xbd93c99b	-0.072161876
121	0x3db5a7f3	0.088699244
122	0xbd845d6b	-0.064631306
123	0xbe19ff99	-0.15038909
124	0xbdbc7abb	-0.092030965
125	0x3dfac271	0.12244118
126	0x3d09a531	0.033604804
127	0x3d14a98b	0.0362945
128	0x3d2d4f1d	0.042311776
129	0x3c49deed	0.012321216
130	0x3e2d9598	0.16951597
131	0xbd277d3b	-0.040890913
132	0xbccc6775	-0.024951676
133	0x3d8463b1	0.06464327
134	0x3dbc796e	0.092028484
135	0x3db87f15	0.09008614
136	0x3e055a41	0.1302271
137	0x3da4c54e	0.080454454
138	0xbd0eb443	-0.03483988
139	0xbe037342	-0.12836936
140	0xbd3aca7e	-0.045603268
141	0xbddaff09	-0.10693175
142	0xbe0301ce	-0.12793657
143	0x3c90dfc5	0.017684827
144	0x3d13b701	0.036063198
145	0x3e330cde	0.17485377
146	0x39cd6415	0.00039175214
147	0x3dd0fdbf	0.10204648
148	0xbe1c0475	-0.15236075
149	0xbda28413	-0.079353474
150	0x3db31c76	0.08745663
151	0xbc164fc2	-0.009174289
152	0xbb51e6aa	-0.0032028356
153	0xbe15fdc6	-0.14647588
154	0xbe2939cb	-0.16525953
155	0xbdc31733	-0.09525909
156	0x3db6ac31	0.08919562
157	0xbe0730d8	-0.13202226
158	0xbe04ccfa	-0.12968817
159	0xbcca7186	-0.024712335
160	0xbd73c68a	-0.059515513
161	0xbe07a7c0	-0.13247585
162	0xbcd3e9d2	-0.02586833
163	0xbdcfa744	-0.10139325
164	0xbd6dba96	-0.05803927
165	0x3c5ad1b7	0.013355664
166	0xbe1ae4da	-0.15126362
167	0xbdc21bf7	-0.0947799
168	0xbc2995da	-0.010350669
169	0x3d567f8e	0.05236774
170	0x3e3f09da	0.18656102
171	0xbdd7325a	-0.10507651
172	0xbcbe8580	-0.023257017
173	0x3df46b26	0.119344994
174	0xbdf32685	-0.118725814
175	0x3cb186dc	0.021670751
176	0x3c456cb2	0.012049841
177	0xbcf85452	-0.030313645
178	0xbd89b789	-0.0672446
179	0x3db0cc46	0.08632712
180	0x3e3725ba	0.17885485
181	0x3db4080c	0.08790597
182	0x3dbebf8c	0.093138784
183	0x3dc564f0	0.09638393
184	0xbd550875	-0.05201002
185	0xbd3318e4	-0.04372491
186	0xbdae182e	-0.08500706
187	0xbb0320f8	-0.0020008665
188	0x3d97e8fc	0.07417485
189	0xbdc492bb	-0.09598299
190	0xbe15a4ca	-0.14613643
191	0xbcad86e2	-0.021182481
192	0x39118100	0.00013876334
193	0xbe59684e	-0.21231195
194	0x3cf8d8a2	0.030376736
195	0x3db186b9	0.086682744
196	0x3e0c5631	0.13704754
197	0xbdd78366	-0.10523109
198	0x3e138d23	0.14409308
199	0xbd302934	-0.043008044
200	0xbd03f45c	-0.03221546
201	0xbd96e87e	-0.07368563
202	0xbde996dc	-0.11405727
203	0x3dc7b6d2	0.09751667
204	0xbc11e67a	-0.008905048
205	0x3e1ac859	0.15115489
206	0x3dc196f1	0.09452618
207	0x3dd28dad	0.10280929
208	0xb9822fda	-0.00024831184
209	0xbd41c56d	-0.04730742
210	0xbded7eaa	-0.11596425
211	0x3c8e5db1	0.01737866
212	0x3dbd754f	0.092508905
213	0xbc95d9ed	-0.018292392
214	0xbe17deef	-0.14831136
215	0xbe0639d5	-0.13107999
216	0xbd2d2dc1	-0.042279962
217	0xbde49cf5	-0.1116275
218	0x3c98f621	0.01867205
219	0xbd20c29c	-0.039248094
220	0x3e11dd9b	0.14244692
221	0x3d086d6d	0.03330748
222	0xbdce7630	-0.10081136
223	0x3e05de38	0.13073051
224	0xbd76fbb7	-0.060298648
225	0xbe02fd4f	-0.12791942
226	0xbc934100	-0.01797533
227	0x3ddb390a	0.10704239
228	0x3d1b0e27	0.037855294
229	0xbe166219	-0.14685859
230	0x3dcf6a71	0.10127724
231	0x3e30dd73	0.17271976
232	0x3c7ac691	0.015306131
233	0xbcade385	-0.021226654
234	0xbde00f66	-0.10940437
235	0x3e1a9415	0.15095551
236	0xbd9848fd	-0.074357964
237	0xbcaf600b	-0.021408102
238	0x3b008805	0.0019612324
239	0x3dbeba9d	0.093129374
240	0xbe1a7e25	-0.15087183
241	0xbd447753	-0.04796536
242	0x3d056411	0.032566134
243	0xbdbfb5f1	-0.093608744
244	0xbd156874	-0.036476567
245	0xbd8531dd	-0.06503651
246	0x3df7fe11	0.12109006
247	0xbd9252dd	-0.07144711
248	0xbde4347c	-0.11142823
249	0xbc9ba82f	-0.019001095
250	0x3dde515f	0.10855364
251	0xbcd1aecb	-0.025596043
252	0x3d7ffd28	0.062497288
253	0xbd1a7bf8	-0.037715882
254	0xbd0cb261	-0.034349803
255	0x3dfa0a3a	0.12208982

conv_layers.0.nn.0.bias f4 [60]
0	0x3dd671d2	0.10470928
1	0xbd3a9c64	-0.045559302
2	0x3e1a6713	0.15078382
3	0x3dd1e582	0.10248853
4	0x3dd1bee7	0.1024149
5	0x3bce8da2	0.006303505
6	0x3e01ea78	0.12687099
7	0xbdae92eb	-0.08524116
8	0x3ca2694c	0.0198256
9	0xbe1a261f	-0.15053605
10	0xb98c99c3	-0.00026817442
11	0xbcbf363a	-0.023341287
12	0x3c98ae3b	0.018637767
13	0xbddd0614	-0.10792175
14	0xbd4034d6	-0.04692539
15	0xbd4bf642	-0.049795397
16	0xbcb33fba	-0.021880973
17	0x3d65b6dd	0.056082595
18	0xbdc33d34	-0.09533158
19	0x3dc9fe11	0.098629124
20	0x3d25df66	0.040496252
21	0xbd2c5ce3	-0.04208077
22	0x3e2571ff	0.16156767
23	0xbc3243c0	-0.010880411
24	0xbacc94d6	-0.0015608321
25	0x3dc3f2c2	0.09567787
26	0x3e045944	0.12924677
27	0x3da2d334	0.0795044
28	0x3dc01e66	0.09380798
29	0x3d491d09	0.049099956
30	0xbdf2f2ce	-0.118627176
31	0xbe0dd3eb	-0.13850372
32	0xbc95b0e0	-0.018272817
33	0xbde27c2c	-0.1105884
34	0x3cf6a764	0.030109115
35	0xbd5534a6	-0.052052163
36	0xbccce0d7	-0.025009556
37	0x3d9c5b36	0.076345846
38	0xbad8c718	-0.0016538827
39	0x3d84105d	0.064484335
40	0x3dd0a0f8	0.10186952
41	0x3ba43ca5	0.005012112
42	0x3cd5342d	0.026025856
43	0xbde44244	-0.11145452
44	0xbbec8a2f	-0.007218621
45	0xbdc8aec7	-0.09798961
46	0xbe0265a2	-0.12734082
47	0xbce47155	-0.027886072
48	0xbdef521f	-0.11685585
49	0xbd813794	-0.06309429
50	0xbdbc99a1	-0.0920899
51	0xbd60d493	-0.054890227
52	0x3d960536	0.07325213
53	0x3c420c0f	0.011843695
54	0xbcf1e3e5	-0.029527614
55	0xbca4a2c5	-0.020097146
56	0xbe0bb651	-0.13643767
57	0xbe171147	-0.14752685
58	0xbd9e29a3	-0.07722785
59	0x3c63ae21	0.013896496

conv_layers.0.nn.2.weight f4 [60, 60]
0	0x3d1a9f1d	0.0377494
1	0x3cdfff5a	0.02734344
2	0xbdcfcb39	-0.101461835
3	0x3b7d5caa	0.0038659968
4	0x3dffebfa	0.12496181
5	0xbd2577e9	-0.04039756
6	0x3d8eb8b8	0.06968826
7	0xbca5dceb	-0.020246943
8	0x3db896d1	0.09013141
9	0x3ddcf415	0.107887425
10	0xb869a5ca	-5.5705932e-05
11	0xb7d91c84	-2.5881694e-05
12	0x3dfdeac9	0.12398297
13	0xbce46e3d	-0.027884597
14	0x3dc3f58b	0.09568318
15	0x3d80ec7c	0.06295106
16	0xbc9be377	-0.019029362
17	0xbe03a909	-0.1285745
18	0xbd8038e5	-0.06260852
19	0x3dbb38c1	0.09141684
20	0x3dcc6605	0.09980396
21	0xbd7ba512	-0.06143672
22	0xbcef9347	-0.029245032
23	0xbcd4ac6a	-0.02596112
24	0xb8cc9f0f	-9.757105e-05
25	0xbdc71cf5	-0.0972232
26	0x3dbdc0a0	0.09265256
27	0x3db865f0	0.09003818
28	0x3d0a34cb	0.033741754
29	0x3def21fe	0.11676405
30	0x3cc73a47	0.024319781
31	0xbdbab8af	-0.09117257
32	0x3dbcc00d	0.09216318
33	0xbdcf140e	-0.10111247
34	0x3df9e34e	0.12201558
35	0xbd80ee9f	-0.06295513
36	0x3e0c4471	0.13697983
37	0x3c849bdf	0.016187606
38	0x3c959fe8	0.018264726
39	0x3dea220a	0.11432274
40	0x3d83bb4a	0.06432207
41	0xbc975609	-0.018473642
42	0xbe05bb36	-0.13059697
43	0x3db7709a	0.08957024
44	0x3d8a865d	0.06763909
45	0xbd02763e	-0.031851046
46	0xbcb41fa8	-0.021987751
47	0xbb5f96be	-0.003411695
48	0xbda3d37a	-0.0799932
49	0x3d93865a	0.0720336
50	0x3db043f9	0.08606715
51	0xbdc4f64f	-0.09617292
52	0xbd2e29de	-0.042520396
53	0x3d93e6a2	0.07221724
54	0x3c86822c	0.016419493
55	0xbe143d22	-0.14476445
56	0x3d8dc1d2	0.06921734
57	0x3dae5feb	0.08514389
58	0xbc32c1fd	-0.010910508
59	0x3d127596	0.03575667
60	0x3c66fba2	0.01409808
61	0x3d103e71	0.0352158
62	0xbda64cc7	-0.08120113
63	0x3d794712	0.060858794
64	0xbde013f7	-0.10941308
65	0x3d43bc52	0.047787018
66	0xbd9693e7	-0.07352429
67	0x3d6d7fbe	0.057983153
68	0x3d707bde	0.05871188
69	0x3d58ae72	0.05290074
70	0xbaa76bd5	-0.0012773225
71	0x3b039d5d	0.002008281
72	0xbd2b5bdb	-0.041835647
73	0x3e0653ad	0.13117857
74	0xbb01ab79	-0.0019786044
75	0xbdb370da	-0.08761759
76	0xbd9918e5	-0.074754514
77	0x3dc80de6	0.09768276
78	0x3ddede45	0.10882238
79	0x3dd4dcc0	0.10393667
80	0xbc8d2a63	-0.017232126
81	0xbb90e0ba	-0.0044213207
82	0xbd87b5f8	-0.06626505
83	0x3ae6aa2c	0.0017598323
84	0x389cf194	7.483657e-05
85	0x3bb4362b	0.0054996214
86	0x3bf6e085	0.007534089
87	0x3d11538e	0.035480075
88	0xbc1f92b0	-0.009739563
89	0x3c2ab9d0	0.010420278
90	0x3dab0d8a	0.08352192
91	0xbcf29316	-0.029611152
92	0xbda605d5	-0.08106581
93	0x3dfc4624	0.12318066
94	0xbdbceeb8	-0.092252195
95	0x3c975e1a	0.018477488
96	0x3dc57cdf	0.09642958
97	0x3de9cd0b	0.11416062
98	0xbdd21392	-0.10257639
99	0xbdde8a90	-0.108662724
100	0xbcfed4e5	-0.031107375
101	0x3d1d86f1	0.03845877
102	0xbdf14cb0	-0.11782205
103	0x3ccd3cf3	0.025053477
104	0xbd598f5d	-0.053115238
105	0x3dbc6f8d	0.09200964
106	0x3d086afd	0.033305157
107	0xbc5390d5	-0.012912949
108	0x3d9abb78	0.07555288
109	0xbdaf7449	-0.085671015
110	0x3e069df9	0.131462
111	0x3db5180b	0.088424765
112	0x3d0f3fd1	0.03497297
113	0x3dc925cb	0.098216616
114	0x3d0cae8c	0.03434615
115	0x3d55a292	0.052156992
116	0x3e0fb6d1	0.14034583
117	0x3daa8126	0.08325414
118	0x3d9ae15a	0.07562514
119	0x3db40520	0.0879004
120	0x3d0f58d9	0.03499684
121	0x3dd7620f	0.1051675
122	0xbdf7f5b0	-0.12107408
123	0xbe0b09e0	-0.13577986
124	0x3d378947	0.044808652
125	0xbdc9e606	-0.098583266
126	0xbd222d84	-0.03959419
127	0xbc5b29f1	-0.013376699
128	0xbd5ea52a	-0.05435673
129	0xbdbd0942	-0.092302814
130	0x3a7316a4	0.0009273088
131	0x3c140209	0.009033688
132	0x3e060ea6	0.13091525
133	0x3d8a0d9f	0.06740879
134	0x3e0fa530	0.14027858
135	0xbddb6ba8	-0.10713893
136	0xbdf61cd3	-0.120172165
137	0xbd90fbce	-0.07079278
138	0xbc435acd	-0.011923504
139	0xbdfec77f	-0.124403946
140	0x3c65ec13	0.014033335
141	0xbdb83840	-0.08995104
142	0x3ca1896c	0.019718848
143	0xbd8a7a13	-0.06761565
144	0xb8282a06	-4.009346e-05
145	0xbd43bc17	-0.0477868
146	0xbd6b469b	-0.05744038
147	0x3e172254	0.14759189
148	0xbc21423c	-0.009842452
149	0xbce36b94	-0.027761258
150	0x3d6a02b6	0.05713149
151	0xbbf1b3a0	-0.0073761493
152	0xbd94c623	-0.07264354
153	0xbdc3a5cb	-0.09553107
154	0x3db3a345	0.087713756
155	0x3da68fbf	0.08132886
156	0x3dd6ee7c	0.10494706
157	0x3b945eda	0.0045279087
158	0x3d4ce75f	0.05002534
159	0x3db8b92b	0.09019693
160	0x3db95d79	0.090510316
161	0x3da05665	0.078289784
162	0xbd9a66ab	-0.075391136
163	0xbdbf57b1	-0.09342898
164	0x3d9675c6	0.07346682
165	0xbca49256	-0.02008931
166	0xbca6f135	-0.020378688
167	0xbc3f4cf7	-0.011676065
168	0xbe03e679	-0.12880887
169	0xbd076c5a	-0.033062316
170	0x3d8c6943	0.068560146
171	0xbcaa8b26	-0.020818304
172	0xbdbf0507	-0.09327131
173	0x3da78837	0.08180278
174	0xbda16254	-0.07880083
175	0x3dbe067b	0.0927858
176	0x3dead622	0.11466624
177	0xbdcdddf2	-0.10052098
178	0x3d72839e	0.05920755
179	0xbe12359c	-0.14278263
180	0x3cd9c885	0.026584873
181	0x3db99cac	0.09063086
182	0x3bead36b	0.0071663163
183	0xbca532d7	-0.020165844
184	0x3e002932	0.12515715
185	0x3d90ecb0	0.070763946
186	0x3e05b9d7	0.13059174
187	0xbe067d38	-0.13133705
188	0xbd4b2ff6	-0.049606286
189	0xbdc28afa	-0.09499164
190	0xbad3853d	-0.001613773
191	0x3da191e2	0.07889153
192	0x3d5a25f8	0.053258866
193	0xbd5145f4	-0.051092103
194	0x3d193a05	0.037408847
195	0xbd79274d	-0.060828496
196	0xbd7b24d3	-0.061314415
197	0xbded68ba	-0.11592241
198	0xbdc394c0	-0.09549856
199	0x3deb012c	0.11474833
200	0xbd0f1766	-0.034934424
201	0x3dacc954	0.08436838
202	0x3d64caaa	0.055857338
203	0xbc15cad9	-0.009142601
204	0x3a11f9c2	0.0005568528
205	0x3d4dbfee	0.050231867
206	0xbc7226b8	-0.014779739
207	0x3c42e2b5	0.0118948715
208	0x3d7b41b0	0.06134194
209	0x3db99a2f	0.09062611
210	0x3da9fbfb	0.083000146
211	0xbd887f02	-0.0666485
212	0xbddf1d4b	-0.10894259
213	0xbd6f6cdf	-0.058453437
214	0x3df9a7f0	0.12190235
215	0xbdb5a316	-0.08868997
216	0x3d86d42e	0.06583439
217	0x3dcac89d	0.09901545
218	0xbd6d3479	-0.05791137
219	0x3b645848	0.0034842659
220	0x3e07ce5b	0.13262312
221	0x3d10b432	0.035328098
222	0xbd49a68f	-0.04923111
223	0x3d3f4e19	0.04670534
224	0x3d2f6cbd	0.04282831
225	0x3dd27906	0.1027699
226	0xbd937d7d	-0.07201669
227	0xbc919b70	-0.017774314
228	0x3dfaafa2	0.122405306
229	0x3df3afab	0.118987404
230	0xbd00666b	-0.031347673
231	0x3da58f0f	0.08083927
232	0x3c1726c8	0.009225555
233	0x3c9dba7a	0.019253958
234	0x3def1133	0.11673202
235	0xbd331173	-0.043717813
236	0x3e08a553	0.13344316
237	0xbda34467	-0.07972031
238	0xbadedbdf	-0.0017002783
239	0x3dc3825e	0.0954635
240	0x3d1c2448	0.038120538
241	0x3d493cdd	0.04913031
242	0x3de538a8	0.11192447
243	0x3d3b08c0	0.04566264
244	0xbc00fd34	-0.007872868
245	0x3e0fb84e	0.1403515
246	0xbda72c68	-0.08162767
247	0xbe1ce07a	-0.15320006
248	0x3d5daceb	0.054119986
249	0xbd99369c	-0.07481119
250	0xbaf87911	-0.0018956979
251	0x3ac04534	0.0014669062
252	0xbd0f5e53	-0.035002064
253	0xbde0d5b3	-0.1097826
254	0xbccbb07b	-0.024864426
255	0x3dc3e9dd	0.0956609

conv_layers.0.nn.2.bias f4 [60]
0	0xb8c4b52f	-9.3797564e-05
1	0xb9f32a7f	-0.00046380234
2	0xb8f242ba	-0.00011551888
3	0xb9603da7	-0.00021385272
4	0x39c756cf	0.00038020915
5	0x38eaf8f6	0.00011204362
6	0x3ae39307	0.0017362543
7	0x39c3b282	0.00037326297
8	0x393ac747	0.00017812579
9	0x3843ed9e	4.671292e-05
10	0xb3d6cd2e	-1.00024735e-07
11	0xbaf7a556	-0.0018893878
12	0x3915faa8	0.00014303124
13	0xbafb113a	-0.0019154914
14	0xbafc1f6b	-0.0019235438
15	0xb99db492	-0.0003007991
16	0xb98c289f	-0.00026733146
17	0xbae3e426	-0.0017386719
18	0xb89089f9	-6.8921545e-05
19	0xb9a5a949	-0.0003159738
20	0x3a58b2c1	0.00082663825
21	0x392d518e	0.00016528947
22	0x3a287397	0.00064259156
23	0xbaf9172d	-0.0019004099
24	0xb9eda711	-0.00045328637
25	0x3a20a4e2	0.0006128085
26	0xbaed4d35	-0.0018104675
27	0x3aa6b2cb	0.0012718079
28	0x39a37b59	0.00031181684
29	0xbaaa874a	-0.001301029
30	0xb87d0447	-6.0323884e-05
31	0x3aae43d0	0.0013295356
32	0x386e9784	5.688473e-05
33	0xb9eec2b9	-0.00045539977
34	0xb959bfcb	-0.00020766181
35	0xb78284f3	-1.5559117e-05
36	0xbb012184	-0.0019703815
37	0x3a0ffabd	0.000549238
38	0xbab7f9f1	-0.001403628
39	0xb9805f17	-0.0002448491
40	0xb97c160b	-0.00024040804
41	0x3771bbd9	1.4408456e-05
42	0xb9f7f6af	-0.00047295305
43	0x39d52e20	0.00040660892
44	0xb9073bb6	-0.00012896847
45	0x3a80580a	0.0009791863
46	0xbac4debf	-0.0015019997
47	0xba8d8c4a	-0.0010799256
48	0xbaff7b98	-0.001949179
49	0xb92bda15	-0.00016389073
50	0xb9f2cca7	-0.00046310315
51	0x3a900452	0.0010987616
52	0xba2b7042	-0.000653986
53	0xb8b14958	-8.453679e-05
54	0xb9081e71	-0.00012981311
55	0xba9eeaed	-0.0012124457
56	0xb89c005f	-7.438729e-05
57	0x387e73aa	6.066604e-05
58	0x3a8393c1	0.0010038541
59	0x39502ef9	0.00019853924

conv_layers.1.nn.0.weight f4 [60, 60]
0	0x3df2a4db	0.1184785
1	0x3dd57f18	0.10424632
2	0x3dade004	0.08489993
3	0x3d910c18	0.07082385
4	0xbb64b3bb	-0.0034897167
5	0xbd98ebaf	-0.07466828
6	0xbd25f827	-0.04051986
7	0x3dedf403	0.11618807
8	0xbd509da7	-0.0509316
9	0x3e0650ad	0.13116713
10	0x3e005fe6	0.12536582
11	0x3d6177c8	0.055045873
12	0x3d2ed740	0.042685747
13	0xba07f97f	-0.0005187019
14	0x3decff0a	0.11572082
15	0x3dd90057	0.10595768
16	0x3d708703	0.058722507
17	0xbdea88ea	-0.114518955
18	0xbd9318ea	-0.07182486
19	0xbd80bb1e	-0.0628569
20	0x3cc93815	0.024562875
21	0xbdf97e6b	-0.121823154
22	0x3c73ff18	0.014892362
23	0x3e138fc5	0.14410312
24	0x3c90af46	0.017661702
25	0xba07c5e3	-0.0005179329
26	0xbd94b071	-0.07260216
27	0xbe07afcb	-0.13250653
28	0x3c483494	0.012219567
29	0x3d9be982	0.076128975
30	0x3e04871c	0.12942165
31	0xbd62b028	-0.055343777
32	0xbd58ad50	-0.05289966
33	0x3c7c665c	0.015405264
34	0xbdca406c	-0.09875569
35	0xbdb01be7	-0.08599072
36	0xbdc071d1	-0.09396709
37	0xbc1468b6	-0.009058168
38	0xbcb91c0d	-0.022596383
39	0xbdff731b	-0.124731265
40	0x3d2f1937	0.042748656
41	0x3c47fd84	0.012206439
42	0xbc845615	-0.016154328
43	0xbcaeb04f	-0.021324305
44	0xbdf806d3	-0.121106766
45	0xbda32173	-0.07965364
46	0x3caaf357	0.020867987
47	0x3d868556	0.065684006
48	0xbdbf86ed	-0.09351907
49	0xbd97f33d	-0.07419441
50	0x3da95187	0.08267503
51	0x3c3363b6	0.010949066
52	0xbdc62a01	-0.0967598
53	0x3d78ee71	0.06077427
54	0x3ba24ace	0.004952765
55	0xbd97cd41	-0.07412196
56	0xbcf9d72c	-0.03049811
57	0x3d999cd9	0.075006194
58	0x3c0a18b6	0.008428743
59	0x3c962be5	0.018331477
60	0x3dda568c	0.10661039
61	0x3c2ed528	0.010670938
62	0x3cf6bdb5	0.030119756
63	0xbd0098a6	-0.031395577
64	0x3d9bc098	0.07605094
65	0xbd9d1351	-0.076697
66	0x3ddabcf7	0.106805734
67	0xbcdcd41d	-0.026956612
68	0x3d3fe998	0.04685363
69	0x3dcf19fe	0.101123795
70	0x3dc2f2a4	0.09518936
71	0xbddc7e5a	-0.10766287
72	0xbde1e6d2	-0.110303536
73	0xbdb16b75	-0.08663074
74	0xbd6bcecf	-0.057570275
75	0x3db88e4f	0.09011518
76	0xbdeecb43	-0.11659863
77	0x3df34835	0.11879007
78	0xbdb49704	-0.088178664
79	0xbd936eaf	-0.071988456
80	0xbdfc954b	-0.12333163
81	0x3dbdc80f	0.09266674
82	0xbcfd47ef	-0.03091809
83	0x3d83c680	0.06434345
84	0xbbfc808d	-0.007705754
85	0xbd0d7bbe	-0.034541838
86	0xbdb759fb	-0.08952709
87	0x3d742159	0.059602115
88	0x3bab7577	0.0052325088
89	0x3e1a29af	0.15054964
90	0x3d5a4b2a	0.05329434
91	0x3d5cd01d	0.05390941
92	0x3d85aa5a	0.065266326
93	0xbd747073	-0.059677552
94	0xbc501dfd	-0.012702462
95	0xbd56cc85	-0.05244114
96	0x3cecfd76	0.028929453
97	0x3e031f5e	0.12804934
98	0xbd8af3c5	-0.067847766
99	0xbda6c293	-0.08142581
100	0x3c9ef990	0.01940611
101	0xbc69f923	-0.01428059
102	0xbda9ccc9	-0.08291013
103	0x3da653cd	0.081214525
104	0xbd3b3cd8	-0.045712322
105	0x3cac2a8b	0.02101638
106	0xbddabdd0	-0.10680735
107	0xba566200	-0.0008178055
108	0xbdcccfea	-0.10000594
109	0x3ddaaef3	0.106779
110	0xbc9d967c	-0.019236796
111	0xbd808b10	-0.06276524
112	0x3b2d3f84	0.0026435563
113	0x3ded2c1c	0.11580679
114	0x3e049cf8	0.12950504
115	0x3d88559d	0.066569544
116	0x3e0cdd04	0.13756186
117	0xbd133252	-0.03593666
118	0xbd24cc79	-0.040234063
119	0x3dd81020	0.105499506
120	0x3c1e92fc	0.0096785985
121	0x3b9e59ea	0.004832496
122	0x3aed14fc	0.0018087919
123	0x3e05daa0	0.1307168
124	0xbde0c96d	-0.10975919
125	0xbde85659	-0.113445945
126	0xbda4e1f4	-0.0805091
127	0xbd56f6f6	-0.052481614
128	0x3d9e24c5	0.07721857
129	0xbdca0ffa	-0.098663285
130	0xbe1345c7	-0.14382087
131	0xbd91b1ed	-0.07114015
132	0xbd855582	-0.0651045
133	0x3dd056c6	0.10172801
134	0xbde6cfee	-0.11270128
135	0xbce05ba2	-0.027387444
136	0x3cee65dc	0.029101305
137	0xbd77337a	-0.060351826
138	0xbd04e1b0	-0.032441795
139	0x3d429261	0.04750288
140	0xbd574aff	-0.052561756
141	0xbd4438e3	-0.047905814
142	0x3dbfc1d0	0.09363139
143	0x3dab4333	0.083624266
144	0x3d939e09	0.07207877
145	0x3d82fce7	0.063958935
146	0xbc00c83c	-0.00786024
147	0x3dbbef98	0.09176558
148	0xbd6b1f4c	-0.057402894
149	0x3dabe577	0.08393376
150	0x3d1de751	0.03855068
151	0x3d133295	0.03593691
152	0x3d471138	0.048600405
153	0xbd8bda60	-0.06828761
154	0xbd6c4913	-0.057686877
155	0x3df0d7b0	0.11759889
156	0x3df73c65	0.12072066
157	0xbde7ed42	-0.1132455
158	0xbcbd6c09	-0.023122804
159	0xbd99173b	-0.07475134
160	0x3da5350d	0.08066759
161	0x3da0c444	0.07849935
162	0x3da8770f	0.082258336
163	0x3da31b43	0.07964184
164	0x3c6e33b8	0.014538698
165	0xbdc92e31	-0.098232634
166	0xbd14f032	-0.03636188
167	0x3d0fdde1	0.03512371
168	0x3d1f8f25	0.038954873
169	0xbd8719e2	-0.06596734
170	0x3d3fa6c3	0.046789896
171	0x3bd6ecae	0.006558976
172	0xbdc77430	-0.09738958
173	0xbdd7dfd3	-0.10540738
174	0xbdefbbee	-0.117057666
175	0xbddfff1b	-0.109373294
176	0xbdce3508	-0.10068709
177	0xbdd54d96	-0.10415189
178	0x3d85ab2d	0.0652679
179	0xbe132833	-0.14370804
180	0x3c96c07d	0.018402332
181	0x3d58a08a	0.052887477
182	0xbe1e7e48	-0.1547786
183	0xbc372ee6	-0.011180615
184	0xbd0c0320	-0.034182668
185	0xbdb11ad7	-0.086476974
186	0x3c5911f0	0.013248906
187	0xbd5bced7	-0.053664055
188	0x3e0dabbe	0.13835046
189	0x3e050878	0.12991512
190	0xbb09c016	-0.0021019033
191	0x3d7807ce	0.060554318
192	0xbd6f422d	-0.05841272
193	0xbe117338	-0.14204109
194	0x3dccd942	0.10002376
195	0xbd7ba30e	-0.061434798
196	0xbd40ecfe	-0.047101013
197	0x3d7ce398	0.061740488
198	0x3d38e2d1	0.045138184
199	0xbdd00600	-0.101573944
200	0xbd83e4ca	-0.064401224
201	0x3d38f82b	0.045158546
202	0xbdc2e465	-0.09516219
203	0x3dbc1a66	0.091847226
204	0x3e08217e	0.13294026
205	0xbda00792	-0.07813944
206	0xbc3167ee	-0.010828001
207	0x3d47f28e	0.048815303
208	0xbd9b166b	-0.07572635
209	0xbe32bc0d	-0.17454548
210	0x3d0e1541	0.034688238
211	0xbd85ac00	-0.06526947
212	0xbcd99c6b	-0.026563844
213	0xbd2f74fe	-0.04283618
214	0x3aacf84f	0.001319656
215	0xbd9b3ce1	-0.07579971
216	0x3dbffe3a	0.09374662
217	0xbe0a99e9	-0.13535275
218	0x3d281513	0.041035723
219	0x3cc54eed	0.024085486
220	0x3db68d4e	0.089136705
221	0xbe00b788	-0.12570012
222	0x3da787f0	0.08180225
223	0xbddd0ad3	-0.1079308
224	0x3d05b50f	0.032643374
225	0xbc2aac8f	-0.010417118
226	0x3d6fc3e6	0.058536433
227	0x3d8be5af	0.06830918
228	0x3dc68b4a	0.09694536
229	0x3d6525ca	0.05594424
230	0x3d8eb6ba	0.06968446
231	0xbda8631f	-0.08222031
232	0x3d98111c	0.07425138
233	0x3ddcc4e2	0.1077974
234	0x3e10a44d	0.14125176
235	0xbda7fc40	-0.0820241
236	0xba2c54f3	-0.0006573938
237	0x3cad22da	0.021134783
238	0xbd11390f	-0.035454806
239	0x3cb383ee	0.021913495
240	0x3cf8c0fc	0.03036546
241	0xbded9713	-0.11601081
242	0x3d37a372	0.044833608
243	0x3c9ca825	0.019123146
244	0x3cb6faf8	0.022336468
245	0xbdd489c4	-0.10377839
246	0x3dda109a	0.10647698
247	0x3d61556d	0.05501311
248	0x3ca9ce2d	0.020728195
249	0x3dfd883c	0.123795
250	0xbd46a4e4	-0.048497096
251	0xbd52390f	-0.051323947
252	0x3ce71c14	0.02821163
253	0xbdf26829	-0.11836273
254	0x3ddd5b05	0.10808376
255	0x3d0db853	0.034599613

conv_layers.1.nn.0.bias f4 [60]
0	0x3d9a5009	0.07534797
1	0xbd1e0f32	-0.03858871
2	0x3d094dfa	0.03352163
3	0xbdc5655d	-0.09638474
4	0x3dc87f68	0.09789926
5	0x3d2f20c6	0.042755865
6	0xbdc15952	-0.094408646
7	0x3befe4f2	0.0073209936
8	0x3d8738a8	0.06602603
9	0xbdbdcd16	-0.09267633
10	0xbc57f2c7	-0.013180441
11	0x3d96203c	0.07330367
12	0x3c78bfe2	0.015182467
13	0x3d0c14c8	0.034199506
14	0xbdd986e7	-0.10621434
15	0xbcfbf542	-0.030756596
16	0xbe071406	-0.13191232
17	0xbd4dfce1	-0.050289992
18	0xbdf9e9c3	-0.1220279
19	0x3da75b71	0.08171738
20	0xbdd21c54	-0.102593094
21	0xbb7246e1	-0.0036968517
22	0x3e05ab5e	0.13053653
23	0x3c9c671d	0.019092137
24	0xbdca3f7f	-0.09875392
25	0xbdd11fb5	-0.10211126
26	0x3db5b7be	0.08872937
27	0xbdbd7ea0	-0.092526674
28	0x3d33683f	0.04380059
29	0x3d59fac3	0.05321766
30	0x3cc57908	0.024105564
31	0x3dd16cea	0.10225852
32	0xbdd8267e	-0.10554217
33	0x3d59c9d4	0.053170994
34	0x3d609715	0.054831583
35	0xbcf1e594	-0.029528417
36	0x3c6adaac	0.014334362
37	0x3cf48bcb	0.029851815
38	0x3da8fb0c	0.082510084
39	0xbc26f276	-0.010189643
40	0xbd0209b1	-0.031747524
41	0x3dd45b69	0.103689976
42	0x3c306256	0.010765633
43	0x3e0256b8	0.12728393
44	0x3d6df6cf	0.058096703
45	0x3d251b7b	0.04030941
46	0xbd13c7c6	-0.03607919
47	0xbd054429	-0.032535706
48	0xbd80398d	-0.06260977
49	0xbcdb36ef	-0.026759593
50	0x3db7e548	0.08979279
51	0x3dbb9662	0.091595426
52	0xbda2aaab	-0.079427086
53	0xbd6a03b3	-0.057132434
54	0xbdff8b2a	-0.12477715
55	0x3dd4aa34	0.10384026
56	0xbb02a8cb	-0.0019937034
57	0x3ca7ed4d	0.020498896
58	0x3d02d2fa	0.031939484
59	0x3d50e941	0.0510037

conv_layers.1.nn.2.weight f4 [60, 60]
0	0xbda9d7c3	-0.082931064
1	0x3db8f7cc	0.090316385
2	0x3cd9f367	0.026605321
3	0x3d320f3e	0.043471567
4	0x3c1aaddc	0.009440865
5	0x3db272dd	0.08713315
6	0xbdcfcc41	-0.1014638
7	0x3dedfcb9	0.11620469
8	0x3de34fd9	0.11099214
9	0xbdc32e3c	-0.09530303
10	0xbdd09dc7	-0.10186344
11	0x3dbd1e81	0.09234334
12	0xbdc4ef5e	-0.09615968
13	0xbe0c3a33	-0.13694076
14	0x3dae12ed	0.084997036
15	0xbbe6a9e0	-0.0070392936
16	0xbcbbdeba	-0.022933353
17	0xbdb1042f	-0.08643376
18	0xbdc0ac18	-0.09407824
19	0xbde0dce7	-0.10979634
20	0x3d87f3a5	0.066382684
21	0xbe0bbc62	-0.13646081
22	0x3cdd0829	0.02698143
23	0x3de67f86	0.11254792
24	0xbc6d4bde	-0.01448342
25	0xbd929f79	-0.07159323
26	0xbcc1eb67	-0.023671819
27	0xbdb1f9e6	-0.086902425
28	0x3dfc5193	0.123202465
29	0x3d40859d	0.047002424
30	0xbd46da7b	-0.048548203
31	0x3d6c547d	0.05769776
32	0x3e16bb13	0.147198
33	0x3d173410	0.036914885
34	0x3c33bf02	0.010970833
35	0x3b0fec98	0.002196109
36	0x3cd6f086	0.026237737
37	0xbd63dc66	-0.05563011
38	0xbc9efa1b	-0.019406369
39	0xbdb0cc68	-0.086327374
40	0xbdcba4b9	-0.09943528
41	0xbd76116b	-0.060075205
42	0x3d7c0eac	0.06153743
43	0xbe0940ef	-0.13403676
44	0xbc8672c4	-0.016412146
45	0xbdc57f3b	-0.09643408
46	0x3dbf8373	0.09351244
47	0xbc3286c8	-0.010896392
48	0x3d11c0e9	0.035584364
49	0xbbebdd09	-0.0071979803
50	0x3d6c413c	0.0576794
51	0xbccdfbb4	-0.025144435
52	0x3d4eb3e4	0.050464526
53	0x3dec2cc2	0.115319744
54	0xbd30ca1e	-0.043161504
55	0xbda69641	-0.081341274
56	0x3e1075eb	0.14107482
57	0x3dd08b3b	0.10182806
58	0xbda00391	-0.0781318
59	0x3bf26db7	0.007398333
60	0x3cf37a0f	0.029721288
61	0x3b8ff722	0.004393474
62	0xbd8b3f73	-0.06799211
63	0x3db68a1a	0.089130595
64	0x3db1527c	0.08658311
65	0x3c0042bd	0.007828412
66	0x3da7f5be	0.082011685
67	0x3e079e60	0.13244009
68	0xbd3855fe	-0.045003884
69	0xbe080b3e	-0.13285539
70	0x3dd87133	0.10568466
71	0xbe187fc0	-0.14892483
72	0x3e21a4c5	0.15785511
73	0x3d82f1d4	0.06393781
74	0xbd06d10b	-0.032914203
75	0xbbc82f24	-0.006109135
76	0x3db0c6b3	0.08631649
77	0x3df85eba	0.12127443
78	0x3d81bad5	0.063344635
79	0x3e0569ba	0.13028613
80	0x3dc74985	0.097308196
81	0x3d9b9717	0.075971775
82	0xbdebc26d	-0.11511693
83	0xbd48c065	-0.049011607
84	0x3ce7e693	0.028308189
85	0x3dbb1c3d	0.091362454
86	0x3c3d8bc4	0.011568967
87	0x3c9c281f	0.0190621
88	0x3da5418b	0.08069142
89	0x3d34a815	0.044105608
90	0x3da6f8f5	0.081529535
91	0xbe058941	-0.1304064
92	0x3dbbcaed	0.091695644
93	0x3df98ad2	0.12184681
94	0x3cad3244	0.021142133
95	0x3dfe134d	0.12406025
96	0xbd58ac01	-0.05289841
97	0xbdd08609	-0.10181815
98	0x3db546a1	0.08851362
99	0xbb80204d	-0.0039101006
100	0x3dceb9b0	0.10094011
101	0xbe0038c1	-0.1252165
102	0x3cadfc5a	0.021238495
103	0xbd44f6dd	-0.04808699
104	0xbcdc9cff	-0.02693033
105	0x3d95308a	0.07284649
106	0xbddc3827	-0.10752898
107	0xbd8044d0	-0.06263125
108	0xbdb1dc6f	-0.086846225
109	0x3d3f1804	0.046653762
110	0xbe098a35	-0.13431628
111	0x3db913ed	0.09037004
112	0x3d979ccc	0.074029535
113	0xbd283ec5	-0.041075487
114	0xbda9d716	-0.082929775
115	0x3d496507	0.049168613
116	0xbe1af29c	-0.1513161
117	0x3d27c7ab	0.040961903
118	0x3d92ce43	0.071682476
119	0x3d9a5b2c	0.07536921
120	0xbdd42bc0	-0.10359907
121	0x3d732fd7	0.059371796
122	0x3df9c6e8	0.121961415
123	0xbce399bc	-0.027783267
124	0x3d853e92	0.06506075
125	0xbdad3dc6	-0.08459048
126	0xbcfb3e36	-0.030669313
127	0xbc64e2df	-0.013970106
128	0xbb70bca8	-0.0036733542
129	0xbd9beffe	-0.07614134
130	0xbd1cf945	-0.03832366
131	0xbd98f637	-0.07468837
132	0x3d8f3bc4	0.06993821
133	0xbbef8b8c	-0.0073103365
134	0x3d126fb6	0.035751067
135	0x3db95a8b	0.09050473
136	0x3d2056ef	0.039145406
137	0xbd6018c7	-0.05471113
138	0xbde154c2	-0.110024944
139	0xbe0a1deb	-0.13487975
140	0x3cf44d20	0.029821932
141	0xbd4fb364	-0.05070819
142	0xbdd543b8	-0.10413307
143	0x3db4444e	0.088020906
144	0xbdc9a2ff	-0.09845542
145	0x3c3bdc75	0.011466135
146	0xbe2c173b	-0.16805737
147	0x3d2d4a85	0.042307395
148	0x3dabe033	0.08392372
149	0x3ddb1525	0.106973924
150	0x3d1ea679	0.03873298
151	0x3d9a2e30	0.07528341
152	0xbda88d42	-0.08230068
153	0xbdcdc596	-0.10047452
154	0xbc8f88aa	-0.017521221
155	0xbde06cc9	-0.10958249
156	0xbdc233ac	-0.09482512
157	0xbda0e768	-0.07856637
158	0x3d82eae7	0.0639246
159	0x3d64f973	0.055901956
160	0xbddabe73	-0.106808566
161	0xbd5a9d56	-0.053372703
162	0xbdd7481e	-0.10511802
163	0x3cebcc39	0.028783904
164	0x3a66e31b	0.0008807645
165	0x3bd9165f	0.0066249813
166	0x3b4a1fe6	0.0030841767
167	0xbd3b9a70	-0.04580158
168	0xbdb5276c	-0.0884541
169	0x3bb9614d	0.005657351
170	0x3d4d58d9	0.05013356
171	0x3da74397	0.081671886
172	0xbdfa5dbf	-0.12224912
173	0xbc32c80c	-0.010911953
174	0x3d740a88	0.059580356
175	0x3caf8fb8	0.021430835
176	0xbda07853	-0.0783545
177	0x3d0b1535	0.03395577
178	0xbd8694a0	-0.06571317
179	0x3e134dcd	0.14385147
180	0xbe02b5a2	-0.127646
181	0xbd20cd0c	-0.039258048
182	0x3d56d354	0.052447632
183	0xbd429780	-0.047507763
184	0x3d3e9858	0.046532005
185	0xbc9f4357	-0.01944129
186	0x3d7dd52d	0.06197088
187	0xbde9273e	-0.11384438
188	0xbe01c30f	-0.12672065
189	0xbd2df2c0	-0.042467833
190	0xbdded990	-0.108813405
191	0xbde34f63	-0.11099126
192	0x3cf64c47	0.030065669
193	0x3da904d3	0.08252873
194	0xbb4b9bf6	-0.0031068302
195	0x3cebfcf3	0.028807139
196	0x3c7c1ebe	0.015388189
197	0xbd10d42c	-0.035358593
198	0xbc14a7a1	-0.009073169
199	0xbd5ea69c	-0.05435811
200	0xbce7ddc6	-0.028303992
201	0xbdeeb8c5	-0.11656336
202	0x3df732bb	0.12070223
203	0xbdd7801d	-0.105224825
204	0xbdf51094	-0.11966053
205	0xbdd2acd1	-0.10286868
206	0xbdb2b61f	-0.08726143
207	0xbdc82ccf	-0.097741716
208	0xbd6db36a	-0.05803243
209	0xbdc5562c	-0.096355766
210	0xbda5a275	-0.08087627
211	0x3ca627e4	0.020282693
212	0xbdd753ca	-0.10514028
213	0xbd9577bd	-0.07298229
214	0x3d4857eb	0.04891197
215	0xbd403321	-0.04692376
216	0xbdefd63f	-0.11710786
217	0xbd9fd003	-0.07803347
218	0x3da914c3	0.08255913
219	0x3e21f490	0.1581595
220	0x38e746f3	0.00011028154
221	0xbd96b39e	-0.07358478
222	0x3d37c353	0.04486401
223	0xbd1d0242	-0.03833223
224	0x3db2a62c	0.08723101
225	0xbde214cf	-0.11039125
226	0xb9ff822f	-0.00048734384
227	0x3da33155	0.07968394
228	0x3dd39884	0.103318244
229	0x3c3b93e0	0.01144883
230	0xbde1434b	-0.10999163
231	0xbc2b92ec	-0.010472041
232	0x3c937f80	0.018005133
233	0xbc6059b7	-0.013693265
234	0xbbeae7d1	-0.007168748
235	0xbcb94b0c	-0.022618793
236	0x3dc8825b	0.09790488
237	0xbe14e3b6	-0.1453999
238	0x3dcede7a	0.10101028
239	0x3e074928	0.132115
240	0xbda89ffd	-0.0823364
241	0x3c9d2e23	0.019187039
242	0x3cdc53e4	0.02689547
243	0xbdf48a78	-0.11940473
244	0x3d891bd4	0.06694761
245	0x3d494045	0.049133558
246	0x3d0c4af1	0.034251157
247	0xbe03764a	-0.12838092
248	0xbd3bfbca	-0.04589442
249	0x3d1bdb54	0.038050964
250	0xbd620ed5	-0.055189926
251	0x3ca21646	0.019786011
252	0x3ccbf7bf	0.024898408
253	0x3db65c53	0.08904328
254	0xbd4a77c9	-0.049430642
255	0xbd011633	-0.03151531

conv_layers.1.nn.2.bias f4 [60]
0	0x398b73fa	0.00026598555
1	0xb9651671	-0.00021847502
2	0xba535f4d	-0.0008063212
3	0xb92b0aa9	-0.00016311802
4	0x3acbfddb	0.0015563326
5	0x39ae84ff	0.00033286956
6	0x3aff8d3f	0.0019497051
7	0x3970fd3b	0.0002298252
8	0xbae9cb76	-0.0017837125
9	0x38580c48	5.150985e-05
10	0x3a545e04	0.00081011676
11	0x3abb1ccd	0.0014275551
12	0x39297675	0.00016161225
13	0x3affaa5d	0.0019505728
14	0xbaa5a38a	-0.0012637239
15	0xb98564f5	-0.00025442956
16	0x38c33ab9	9.3092625e-05
17	0xb8bcd3c9	-9.0039866e-05
18	0xb8ca464a	-9.645203e-05
19	0xb8936a93	-7.029357e-05
20	0xbac8ab4f	-0.0015309843
21	0xba1dc09a	-0.00060177746
22	0x39450fed	0.00018793317
23	0xbaaa8655	-0.0013010005
24	0x39154eb4	0.00014239067
25	0x3a88864a	0.0010415998
26	0x38f770dd	0.000117989
27	0xb9b9b1da	-0.0003541846
28	0x3a168f0d	0.0005743362
29	0x38cf0f9e	9.873438e-05
30	0xb8e29375	-0.00010803986
31	0xba29a4b3	-0.00064713805
32	0x3969ab7f	0.00022284499
33	0xb90594bc	-0.00012739276
34	0xb7ff5e8f	-3.0442401e-05
35	0x39d40f27	0.0004044708
36	0x3946756a	0.00018926492
37	0xba1f301c	-0.00060725375
38	0x38f9fb3c	0.00011920041
39	0xb8ea1321	-0.000111615525
40	0xb647373f	-2.9685468e-06
41	0xbaf6a986	-0.0018818832
42	0xb8dc6433	-0.00010509081
43	0x3ada1d23	0.0016640763
44	0xbacfad21	-0.0015844443
45	0x3a716015	0.0009207738
46	0x387b5d6f	5.993008e-05
47	0x3873c9ed	5.8123773e-05
48	0x37497572	1.20078785e-05
49	0xb9adef43	-0.00033175395
50	0x393804fd	0.00017549466
51	0x39ea62ce	0.00044705573
52	0x3946f20c	0.00018972921
53	0x3ae73b49	0.001764157
54	0xbad69277	-0.0016370554
55	0xb8bd7224	-9.033483e-05
56	0x37149bb9	8.857744e-06
57	0xbb00600e	-0.0019588503
58	0xb8e1d19d	-0.000107678796
59	0x37288124	1.0043648e-05

conv_layers.2.nn.0.weight f4 [60, 60]
0	0xbc45ebe3	-0.012080166
1	0xbc7261d5	-0.014793833
2	0x3d2dc1b4	0.042421058
3	0xbccddb55	-0.025129
4	0xbd193238	-0.037401408
5	0xbd95db59	-0.07317228
6	0xbdec0221	-0.115238436
7	0x3c5c21de	0.013435809
8	0x3acedd75	0.0015782552
9	0x3c6e1e5d	0.014533606
10	0x3e0c12d1	0.13679053
11	0xbd7b2658	-0.061315864
12	0xbd28b71d	-0.041190255
13	0xbdcdcf6e	-0.1004933
14	0x3dcea20d	0.100895025
15	0xbc71edf2	-0.014766203
16	0xbc899dc5	-0.016798863
17	0x3dadc256	0.08484332
18	0x3db2f2ab	0.087376915
19	0x3daa3e89	0.08312709
20	0x3c290b63	0.010317656
21	0x3ce45402	0.02787209
22	0xbdafcde6	-0.08584194
23	0xbe11c4f6	-0.14235291
24	0xbded7360	-0.11594272
25	0x3dd25ab4	0.102712065
26	0xbd3d5279	-0.04622123
27	0xbcafae5a	-0.021445442
28	0xbd7ddc1a	-0.061977483
29	0x3bc986b0	0.006150089
30	0x3dd28e3a	0.10281034
31	0xbd9d54cf	-0.076821916
32	0xbd929474	-0.071572214
33	0x3c65e30c	0.014031183
34	0x3dc3a72a	0.095533684
35	0xbd5655d9	-0.052327964
36	0x3df4617c	0.11932656
37	0x3c2ee4e1	0.010674686
38	0x3d2a9c19	0.041652773
39	0xbdb0263a	-0.08601041
40	0xbd98d362	-0.07462193
41	0x3d024d14	0.03181179
42	0xbde34ada	-0.11098261
43	0xbda48265	-0.08032683
44	0x3c065f1e	0.008201389
45	0xbc4e396c	-0.012586933
46	0x3e1396da	0.14413014
47	0xbcf955ca	-0.030436415
48	0xbe0035ab	-0.12520473
49	0xbd469c4e	-0.048488908
50	0x3db83321	0.08994127
51	0x3d88fe8d	0.06689177
52	0x3dabeead	0.08395133
53	0x3d6ca9a8	0.057778984
54	0xbd7859a3	-0.06063236
55	0x3d2e3e76	0.042540036
56	0x3cece50e	0.028917816
57	0x3dd875d8	0.10569352
58	0xbdc63d2f	-0.096796386
59	0xbc3565bc	-0.011071619
60	0x3d5d1198	0.053971857
61	0xbca3ec68	-0.020010188
62	0xbde0685f	-0.10957407
63	0xbc9c3a55	-0.019070784
64	0xbbb7d3e3	-0.0056099757
65	0xbd5c8f8b	-0.05384783
66	0x3d885d29	0.06658394
67	0x3e008323	0.12550025
68	0xbd5edec9	-0.054411683
69	0x3d9ac57c	0.075571984
70	0x3ccd3344	0.02504886
71	0xbdc0fa78	-0.09422773
72	0xbe1dcd17	-0.15410267
73	0xbc399501	-0.011327029
74	0x3d6cf230	0.057848155
75	0x3c32cdbe	0.010913311
76	0x3deae356	0.11469142
77	0x3db311cd	0.087436296
78	0x3db69969	0.089159794
79	0x3dd9acfc	0.10628697
80	0x3d7c210e	0.06155496
81	0xbd50a24f	-0.05093604
82	0x3b4957bd	0.0030722462
83	0xbd0f722c	-0.035020992
84	0x3da3dc5c	0.080010146
85	0x3e0787bd	0.13235374
86	0xbc44c36a	-0.012009481
87	0xbdb807b4	-0.08985844
88	0xbdfb46a2	-0.122693315
89	0x3de8f726	0.11375265
90	0xbdcad328	-0.09903556
91	0x3de06999	0.10957641
92	0x3e084389	0.13307013
93	0xbd49ed5f	-0.04929864
94	0xbd6f0879	-0.05835769
95	0x3d04dafb	0.0324354
96	0xbd9abe05	-0.075557746
97	0xbd521d77	-0.05129763
98	0xbc8a65a7	-0.016894175
99	0xbdec0fb5	-0.115264334
100	0xbcca0993	-0.024662768
101	0xbe06747a	-0.1313037
102	0x3d863f11	0.06554998
103	0x3d17a1ea	0.037019648
104	0x3cc7716d	0.024346078
105	0x3dafb120	0.08578706
106	0xbc8db164	-0.0172965
107	0x3c1a2865	0.009409045
108	0xbbb65f70	-0.0055655763
109	0x3d225ca0	0.039639115
110	0x3d1da567	0.038487818
111	0x3d072940	0.032998323
112	0xbcca2253	-0.02467457
113	0xbd3c4e6b	-0.045973223
114	0x3cb10733	0.021609878
115	0xbe01eb86	-0.12687501
116	0xbddb8fc0	-0.107207775
117	0xbe021239	-0.12702264
118	0x3d576ddc	0.052595004
119	0xbddbf02d	-0.10739169
120	0x3db4c8ee	0.08827387
121	0x3d19c4bf	0.037541147
122	0xbdf7da01	-0.12102128
123	0xbd3f2801	-0.04666901
124	0xbd9d7341	-0.076879986
125	0xbcc7116c	-0.0243003
126	0x3d612727	0.05496898
127	0xbe175e00	-0.14781952
128	0xbd8eba62	-0.069691435
129	0xbcca4b64	-0.024694152
130	0x3d0e9677	0.034811463
131	0x3d0d0fcd	0.034438897
132	0xbe085f35	-0.13317569
133	0x3de6ad54	0.112635285
134	0x3ca3f2e6	0.020013284
135	0xbd694f85	-0.0569606
136	0x3d9ff39c	0.07810137
137	0x3dcbf64b	0.09959086
138	0xbd5378ed	-0.051628996
139	0xbdc4c4ef	-0.096078746
140	0xbdc7317d	-0.09726236
141	0x3df7385c	0.120712966
142	0x3e00a5ba	0.1256322
143	0x3d6d3866	0.057915114
144	0x3d0bcbe4	0.034129992
145	0x3d9e1cf3	0.077203654
146	0xbdd862ba	-0.105657056
147	0x3d429feb	0.04751579
148	0xbdf5ac45	-0.119957484
149	0xbd627583	-0.05528785
150	0xbcce919e	-0.02521592
151	0xbd12bd11	-0.03582484
152	0x3c91092a	0.017704565
153	0xbbae2383	-0.005314292
154	0x3d953adf	0.072866194
155	0x3d1b58d6	0.037926517
156	0x3d9fe471	0.078072436
157	0xbdb9d952	-0.09074654
158	0x3dc79fab	0.09747251
159	0xbc1dfbf0	-0.009642586
160	0xbdf9280c	-0.121658415
161	0xbd951411	-0.07279218
162	0xbe09fa22	-0.13474324
163	0xbc396962	-0.011316629
164	0x3cb31326	0.021859717
165	0x3e05bcb0	0.1306026
166	0x3d98747c	0.07444093
167	0x3d0428ec	0.03226559
168	0x3d501944	0.050805345
169	0xbddd94d9	-0.10819406
170	0x3d950cee	0.07277857
171	0xbd0a4919	-0.033761118
172	0xbdee5248	-0.11636788
173	0xbdd4007b	-0.10351654
174	0xbc05657b	-0.008141871
175	0x3d3ea5a9	0.046544705
176	0xbd3815fb	-0.044942837
177	0x3da18247	0.078861766
178	0x3c1f4277	0.009720436
179	0xbde37c2d	-0.11107669
180	0xbd7fdc01	-0.06246567
181	0xbc5143b7	-0.012772492
182	0xbe19719c	-0.14984745
183	0x3dcfb44e	0.10141812
184	0x3d1a4490	0.037663043
185	0xbd0ce33c	-0.034396395
186	0x389d0ad7	7.4883625e-05
187	0xbd3bf267	-0.04588547
188	0x3d5dd20c	0.054155394
189	0xbe133ee6	-0.14379463
190	0x3d73fb04	0.05956556
191	0xbd44cda3	-0.048047673
192	0x3d24cea1	0.04023612
193	0x3e0547eb	0.13015716
194	0x3d63c7c7	0.055610444
195	0xbd9d7852	-0.07688965
196	0x3d45d25d	0.04829632
197	0xbd11688b	-0.03550009
198	0xbd27b609	-0.040945087
199	0x3d280487	0.041019943
200	0x3ba17090	0.0049267486
201	0xbce29e1f	-0.027663289
202	0x3d9b44e9	0.07581503
203	0x3d3d2f55	0.046187717
204	0xbde69e22	-0.1126063
205	0x3d2f4280	0.04278803
206	0x3db5d5aa	0.08878644
207	0x3dde17cf	0.10844385
208	0x3d42a013	0.04751594
209	0x3c789bce	0.0151738655
210	0xbd7782fd	-0.060427655
211	0x3d88ef3b	0.066862546
212	0xbdd011df	-0.10159659
213	0xbdc46851	-0.09590209
214	0xbd313546	-0.043263696
215	0x3d916acc	0.07100448
216	0x3de82167	0.11334496
217	0xbde3e689	-0.111279555
218	0x3d831ff3	0.06402578
219	0xbc84cbee	-0.016210523
220	0x3d2b3789	0.04180101
221	0x3d36267a	0.044470288
222	0xbc50cc51	-0.012744025
223	0xbdc100b8	-0.09423965
224	0x3d3b07c4	0.045661703
225	0xbd8e420d	-0.06946192
226	0xbb8a0ee2	-0.0042132
227	0xbc2ddbba	-0.010611469
228	0x3d3913cd	0.0451849
229	0xbdc2bb0e	-0.09508334
230	0xbda976ff	-0.0827465
231	0xbd0f0ca6	-0.034924172
232	0xbd407a8a	-0.046991862
233	0xbd0fde1f	-0.03512394
234	0xbda109b6	-0.0786318
235	0xbd970608	-0.07374197
236	0xbc846abe	-0.01616418
237	0xbcd23351	-0.025659235
238	0x3da83925	0.082140245
239	0xbdb4e829	-0.088333435
240	0x3d51ccae	0.05122059
241	0xbdb05dba	-0.08611627
242	0x3cc58204	0.024109848
243	0xbd130454	-0.0358928
244	0x3d91f72a	0.07127221
245	0xbca91d97	-0.020643992
246	0xbd97dc80	-0.07415104
247	0xbe0ae143	-0.13562493
248	0xbd8cb3f0	-0.06870258
249	0xbd971ced	-0.07378564
250	0xbd8f4405	-0.069953956
251	0x3cddbd78	0.027067885
252	0x3b59edea	0.003325338
253	0xbdc3a501	-0.09552956
254	0xbdcdc881	-0.10048009
255	0x3db3b01f	0.08773827

conv_layers.2.nn.0.bias f4 [60]
0	0x3d5f53ef	0.054523405
1	0x3d563340	0.05229497
2	0xbdccc3c7	-0.09998279
3	0xbd8999db	-0.06718799
4	0xbd911392	-0.07083811
5	0xbde5b033	-0.11215248
6	0xb82d4cf6	-4.131809e-05
7	0x3c9d27af	0.019183962
8	0x3db863db	0.09003421
9	0xbd93960c	-0.072063535
10	0x3d4baa59	0.049723003
11	0xbd89a5ff	-0.06721114
12	0xbd54c68b	-0.051947158
13	0xbd7e2ebc	-0.062056288
14	0x3c0a6bfc	0.008448597
15	0x3d9d4b3f	0.07680368
16	0x3d87babb	0.06627413
17	0x3d03a929	0.032143746
18	0xbc9fd8c7	-0.019512547
19	0xbdbd291a	-0.09236355
20	0x3d288280	0.04114008
21	0x3c01112c	0.007877629
22	0xbdc8b904	-0.09800914
23	0xbdeea73c	-0.11652991
24	0xbc8f8ae6	-0.017522287
25	0xbdd015c8	-0.101604044
26	0xbd33dcc7	-0.04391172
27	0x3da7964d	0.081829645
28	0xbdd6a92b	-0.10481485
29	0xbdc2c94c	-0.095110506
30	0xbdd3a0e2	-0.1033342
31	0x3c2a7d12	0.010405796
32	0x3d80d7f7	0.06291192
33	0xbd59506f	-0.053055223
34	0x3dc2e516	0.09516351
35	0xbdce720e	-0.10080348
36	0x3d731403	0.059345257
37	0x3d4b1bb8	0.04958698
38	0x3cb2dd3a	0.021834005
39	0xbde3fb52	-0.1113192
40	0x3d788bcd	0.0606802
41	0xbd97ab53	-0.074057244
42	0xbcbd689d	-0.023121173
43	0x3dd1ee9e	0.10250591
44	0x3d804bc2	0.0626445
45	0x3d9e8289	0.07739741
46	0xbd69a080	-0.05703783
47	0xbe02af4f	-0.12762187
48	0x3d7d8aae	0.061899833
49	0xbdd42f02	-0.103605285
50	0x3d07120a	0.032976188
51	0xbd103329	-0.03520504
52	0xbc7e54c8	-0.015523143
53	0xbdbad0ed	-0.09121881
54	0x3e018fd2	0.1265252
55	0x3d2a3d57	0.041562404
56	0x3d35be37	0.044370856
57	0x3da2ac90	0.0794307
58	0xbdfe7644	-0.12424901
59	0x3da5e655	0.08100573

conv_layers.2.nn.2.weight f4 [60, 60]
0	0xbc827d7c	-0.015928976
1	0xbd58ef06	-0.052962326
2	0xbdfa8e23	-0.12234142
3	0x3dda8d11	0.106714375
4	0xbd21e3f4	-0.039524034
5	0xbd103f36	-0.035216533
6	0x3de4270e	0.111402616
7	0x3db8e2cc	0.09027633
8	0x3cf4604f	0.02983108
9	0xbc51b51d	-0.012799528
10	0xbd2873d2	-0.04112608
11	0xbdeaf395	-0.11472241
12	0x3d164945	0.03669097
13	0xbcaf2e0f	-0.021384267
14	0xbdcbbbef	-0.09947955
15	0xbdd5db12	-0.10442175
16	0x3e03e0d1	0.1287873
17	0xbe09e1ce	-0.13465044
18	0xbdf03038	-0.11727947
19	0x3d01f9f4	0.031732515
20	0x3d6e30ed	0.058152128
21	0x3db508a9	0.088395424
22	0xbd764c8a	-0.060131587
23	0x3d1090b2	0.035294242
24	0xbdc94de2	-0.09829308
25	0x3c7174b4	0.014737297
26	0xbe108ece	-0.14116976
27	0x3d40e902	0.047097214
28	0x3dfa7da9	0.12230999
29	0x3d1a1d2e	0.037625484
30	0xbdf93de1	-0.121700056
31	0xbd2e6ca2	-0.04258407
32	0x3d952f8b	0.07284459
33	0xbd52a361	-0.05142534
34	0xbd4ded4c	-0.050275132
35	0x3c87e894	0.016590394
36	0xbbbcb021	-0.005758301
37	0x3dd443c4	0.10364488
38	0xbd211374	-0.039325193
39	0x3da234c7	0.07920223
40	0x3e049bd6	0.12950072
41	0x3d756114	0.059907034
42	0xbe06b9d7	-0.1315683
43	0x3c81e459	0.015855955
44	0xbdca56a5	-0.098798074
45	0xbd9133b2	-0.07089938
46	0xbc61dc70	-0.013785467
47	0x3c322f1b	0.010875489
48	0x3c518f98	0.012790583
49	0x3984199e	0.00025196088
50	0xbc745503	-0.0149128465
51	0x3e0f705a	0.14007702
52	0x3d439d2f	0.047757324
53	0x3c1f1448	0.009709425
54	0xbdbaaa14	-0.09114471
55	0xbdcc584c	-0.09977779
56	0xbd40c480	-0.047062397
57	0x3c3fd3a2	0.011708172
58	0xbdd7a134	-0.10528794
59	0x3d34a5b6	0.044103347
60	0xbda7f631	-0.08201254
61	0x3dbe609e	0.09295772
62	0x3d3cd402	0.046100624
63	0x3d79af55	0.060958225
64	0xba733463	-0.00092775206
65	0xbdcb4a1a	-0.09926243
66	0x3e023c40	0.12718296
67	0xbdce1ce4	-0.10064104
68	0x3d32925f	0.04359662
69	0xbdbe1e56	-0.0928313
70	0xbd937937	-0.07200854
71	0x3dbac9b3	0.09120502
72	0x3d405fde	0.046966426
73	0xbde56dda	-0.11202593
74	0x3cc80f77	0.024421437
75	0x3a699287	0.0008910079
76	0xbd8bdd34	-0.068293005
77	0x3d52ce0a	0.051466025
78	0xbd3d0285	-0.04614498
79	0x3d1d2c16	0.03837212
80	0x3c7b8e59	0.015353763
81	0xbde4fa9d	-0.11180613
82	0x3df65cc9	0.12029416
83	0x3de57ff7	0.11206048
84	0xbdc1ee90	-0.0946933
85	0x3acf656c	0.0015823073
86	0x3d69d2e7	0.057085898
87	0xbda81ca5	-0.082085885
88	0x3dadba98	0.084828556
89	0x3d2fa521	0.04288209
90	0x3cfa3b8d	0.030545974
91	0x3dc4a3b1	0.09601534
92	0xbc1a20b2	-0.009407209
93	0xbd8f1810	-0.069870114
94	0xbb3e867d	-0.002907186
95	0xbd422e0a	-0.047407188
96	0x3e253770	0.16134429
97	0xbb0ef3c3	-0.0021812774
98	0xbb9de98a	-0.0048191
99	0x3dd14aa1	0.102193125
100	0x3d4dc54c	0.050236985
101	0x3da84296	0.08215825
102	0xbd41d4c9	-0.04732207
103	0xbdc5f9e6	-0.09666805
104	0xbd93bf3b	-0.07214209
105	0xbd61c48b	-0.05511908
106	0xbd7150dd	-0.058915008
107	0x3dbb397e	0.09141825
108	0xbdd6996d	-0.104784824
109	0x3dd152af	0.10220849
110	0x3d93fb4c	0.072256655
111	0x3d9beec5	0.07613901
112	0x3d07096d	0.032967974
113	0xbd687068	-0.056747824
114	0x3e06cba3	0.13163619
115	0x3d0026f0	0.031287134
116	0xbd2b9b36	-0.041896068
117	0x3dd0d0dc	0.10196087
118	0xbd9fc49a	-0.07801171
119	0x3de09c1f	0.10967278
120	0x3dcec5b4	0.10096303
121	0xbddd838a	-0.10816105
122	0x3cee8506	0.029116165
123	0xbc94639d	-0.018113906
124	0xbd4f751c	-0.050648794
125	0x3da32509	0.07966048
126	0x3d7e2a3e	0.062052004
127	0x3d5b45e4	0.05353345
128	0x3df4cb9a	0.119528964
129	0x3d63a41a	0.05557642
130	0x3da2311a	0.07919522
131	0xbc5d4cbb	-0.0135070635
132	0x3aea7a42	0.0017889219
133	0xbd8836e0	-0.066510916
134	0x3d46e8f1	0.048561994
135	0xbca0da51	-0.019635351
136	0xbce9f342	-0.028558377
137	0x3c313bad	0.0108174505
138	0x3c678cdb	0.014132704
139	0xbdc86e90	-0.09786713
140	0xbe0dd611	-0.13851191
141	0x3db5291d	0.08845732
142	0xbdb0e541	-0.08637477
143	0xbe067004	-0.13128668
144	0xbbfdfd02	-0.007751108
145	0xbcd9a857	-0.026569529
146	0x3db1f7dd	0.08689854
147	0x3c824b60	0.015905082
148	0xbdfd90af	-0.12381112
149	0xbc8939ac	-0.016751133
150	0xbe21e2dc	-0.15809196
151	0xbdf6d5ba	-0.12052484
152	0xbcfacd22	-0.030615393
153	0xbc46ebdb	-0.012141193
154	0x3cb1e9b9	0.021717893
155	0xbdd3602f	-0.1032108
156	0xbc1f7c20	-0.009734184
157	0xbd0994e8	-0.033589274
158	0x3dc06a85	0.09395317
159	0xbd063fc4	-0.032775655
160	0xbdc0c010	-0.09411633
161	0x3db0282d	0.08601413
162	0xbd4ec297	-0.050478544
163	0x3c88a8fe	0.016682144
164	0xbdb6da65	-0.08928374
165	0xbd82350b	-0.063577734
166	0x3d257143	0.040391218
167	0xbe06572d	-0.13119192
168	0x3da5408b	0.08068951
169	0x3d347758	0.044059128
170	0x3d2cf76e	0.042228155
171	0x3c4b8c36	0.012423566
172	0x3dc11967	0.09428673
173	0xbd46f1c8	-0.048570424
174	0xbcb5571d	-0.022136265
175	0x3d982bb7	0.07430213
176	0x3ccf3e59	0.025298284
177	0x3d221064	0.039566413
178	0x3cd00ff7	0.025398238
179	0x3d2a1b12	0.041529723
180	0xbb2a62e4	-0.0025998885
181	0xba3ece34	-0.00072786515
182	0x3d11afa7	0.035567906
183	0x3cb1a954	0.021687187
184	0x3a95b0b0	0.0011420455
185	0xbb64aaec	-0.0034891916
186	0x3cfb1fd3	0.030654823
187	0xbde4474e	-0.11146413
188	0x3d6f790b	0.058465045
189	0xbc9406a2	-0.018069569
190	0x3c862206	0.016373646
191	0x3dbf0fbf	0.09329175
192	0xbd113b84	-0.03545715
193	0xbe04a624	-0.12954003
194	0x3d1438ad	0.036186863
195	0x3da4d5bd	0.0804858
196	0xbdcb96ea	-0.09940894
197	0xbd57d894	-0.05269678
198	0x3d33c5ef	0.043889936
199	0x3ccb2bdc	0.024801187
200	0xbde5e641	-0.11225558
201	0xbcd29048	-0.025703564
202	0xbb7ef46e	-0.0038903016
203	0x3dd3b15b	0.10336562
204	0x3d625b7b	0.055263024
205	0xbdc6d4aa	-0.09708531
206	0x3da86355	0.08222071
207	0x3d2e71af	0.042588886
208	0x3cf1c984	0.029515035
209	0x3dc1dd2b	0.094660126
210	0x3dc7ff67	0.09765511
211	0xbd91c52a	-0.07117684
212	0xbd0f96dc	-0.03505598
213	0xbd99f556	-0.07517497
214	0x3dbff784	0.09373382
215	0x3d6333c8	0.055469304
216	0x3a3d719a	0.0007226706
217	0xbe10bb74	-0.14134008
218	0xbdd56092	-0.1041881
219	0x3e03de15	0.12877686
220	0x3e0331fd	0.12812038
221	0xbdba9783	-0.0911093
222	0xbd52c21a	-0.05145464
223	0xbd344d0c	-0.04401879
224	0xbdd92987	-0.10603624
225	0xbcad6738	-0.021167383
226	0xbb5ba044	-0.0033512274
227	0x3c154a42	0.009111943
228	0x3be6fa8e	0.0070489114
229	0xbdaaf090	-0.08346665
230	0xbe0bd733	-0.1365631
231	0xbc8c9aa1	-0.017163577
232	0x3ccdabd3	0.025106346
233	0x3d4d3a2d	0.05010431
234	0xbde89dd4	-0.11358228
235	0xbd951cf4	-0.07280913
236	0xbd1edb1b	-0.038783174
237	0xbc9a4685	-0.018832454
238	0xbd653473	-0.055958223
239	0xbda20617	-0.07911318
240	0x3db87316	0.09006326
241	0xbda3655f	-0.079783194
242	0xba0eac20	-0.0005442519
243	0xbd360e4f	-0.04444724
244	0xbd3011c3	-0.04298569
245	0x3d3df688	0.04637769
246	0xbd542876	-0.0517964
247	0xbdfa9fef	-0.12237536
248	0xbdbfa65e	-0.09357904
249	0xbbaca41c	-0.005268587
250	0xbdcb0dc3	-0.09914734
251	0xbdc15be5	-0.094413556
252	0x3bd49b25	0.006488221
253	0xbdf88371	-0.121344455
254	0x3db4c2ba	0.08826204
255	0xbda39cee	-0.07988916
